Python/Andrei SLM/SLMCalibrationParam.npy (npy, 1480 bytes, 1 tensors)

array f8 [35, 5]
0.8906488598078581 -4.071615691603708 6.053023684146032 -6.22523653494776 15.231201637474701 0.5032245607914431 -2.258821313333139 3.2194657731319984
-4.350892414901395 14.635883380581163 0.5858266136570631 -2.6441686567236222 4.455767420957815 -7.154461040883858 17.14841766400194 0.7004452032637762
-2.9953901389807522 4.1156806836549595 -4.9683823870171695 15.173552781720169 0.6944189190688573 -2.4025736844825354 1.9389063251566614 -2.9011170043510917
15.254350381767635 0.26999960100002834 -0.284602763737941 -1.691102077752804 -0.28760935879997457 14.484752204687034 -0.3981027116521155 2.9505088583972854
-6.607660132188158 1.3790939710143233 15.91511841599927 -0.32637139630058254 2.8921206369214767 -7.478951748947596 3.498042102167937 14.39713945868735
-1.322900812267551 7.930288260229357 -15.537755723355518 7.00519377217845 15.65178158194874 -0.7082995401653767 4.673972774039777 -10.016805506441528
4.260527299626862 15.310822350490763 -0.42137568881687026 2.8718911159351426 -5.24106735717955 -2.1584773307940694 18.981595347605104 -1.4721460678331821
9.133267545694327 -19.028465474930023 11.262746042545382 14.073182932074829 -1.123444116466144 6.704482850000574 -12.441917808043703 3.2914821801286505
17.71489513110241 -1.3294323540097532 8.167809936975267 -16.11153414487914 6.718940052551851 17.25236826745402 -0.6082235504126154 4.158351029002191
-8.62621045843047 1.7520087071370074 17.794144073470438 -1.158988284990308 7.03856753810121 -13.067555121655277 2.868092942815415 19.3149287971058
-1.4550162013898484 8.880440441607599 -17.443499944372178 7.567750936835295 17.468143175991408 -0.7488219366438691 4.782246656110434 -9.119424732803395
0.7939505889252537 19.37738117151063 -1.7636216170256194 9.64865419276729 -16.110764413767924 2.80418224343909 20.76513831803678 -1.5603321497015883
9.26819264566549 -17.36644432743607 5.94223744995309 19.309679601551046 -1.6444068869371948 9.188264845027048 -15.849454924263103 3.4840700554296222
20.43805941008695 -1.8299730670503433 9.570308031774644 -14.478457605700068 -0.516542581753909 22.954035936703935 -2.1380579481159554 11.614928878874252
-19.07197940777812 3.073398521486146 22.91392581286169 -1.3974462529568208 8.125887280161685 -14.445608901834396 2.6658089597010273 21.253285448463174
-1.6405659126708165 8.378683619689076 -11.712348076795022 -3.3355145578441605 24.350842182717212 -1.2779822279234556 6.664043812279835 -8.674071410403627
-6.348961558306134 26.120527037933645 -2.093062444514943 11.507970727758634 -19.26091180934633 3.7457994148272973 22.756689786443143 -1.4743759142103734
8.137453000389385 -13.014639372549372 -0.5411503560228312 23.580484786041914 -1.5741073546798168 7.792334374008452 -9.571600679163868 -6.7053326144969745
26.620844665806807 -1.8455093765953965 9.482372698746117 -12.784115677596631 -5.444457288299424 27.805946008218218 -1.045422883846278 5.179859852513917
-5.078873664811691 -10.563778443506367 28.970641234090657 -1.7972341816283326 9.79183548848521 -15.931362991845686 1.4330053571365469 23.668204991988407
-1.7403560472074677 8.59009913155604 -10.659709878533727 -6.5794368295091 27.405027333395434 -1.1464594241820796 5.1819995204280955 -3.1608183732777424
-14.481673602504525 31.100550031939715 -1.7179375060995339 8.965034256952077 -11.96587145442384 -6.440040947845887 29.117028331751666
00000000: a605 a309 3280 ec3f fd45 b59f 5549 10c0
00000010: 5648 35d7 4b36 1840 26dc fd67 a4e6 18c0
00000020: 9278 9f0f 6076 2e40 3195 e464 6a1a e03f
00000030: 5630 a2e8 1012 02c0 db8b 7145 77c1 0940
00000040: f0a9 5957 5067 11c0 0055 a781 9245 2d40
00000050: 8a12 5974 17bf e23f c1e3 8de5 4127 05c0
00000060: 6362 deb1 b4d2 1140 be68 fc08 2b9e 1cc0
00000070: 7c09 35b3 fe25 3140 440e 150f 0c6a e63f
00000080: 3f77 ed1a 8ff6 07c0 d24e 44ff 7476 1040
00000090: 6d0b e9a1 9fdf 13c0 643c 03e9 db58 2e40
000000a0: 31fb 6306 ae38 e63f 65a9 488d 7838 03c0
000000b0: eee2 88a3 c205 ff3f 9d75 fcd4 7c35 07c0
000000c0: 8fd5 9636 3a82 2e40 599a 0e68 ac47 d13f
000000d0: 52c3 a682 ee36 d2bf c855 620d c10e fbbf
000000e0: 6371 8415 3168 d2bf e496 e370 31f8 2c40
000000f0: 0eaa bfcb 837a d9bf 41ff 6a63 a49a 0740
00000100: 2053 2b75 3e6e 1ac0 6ce0 f9d6 c410 f63f
00000110: 4e5e a966 8ad4 2f40 b07e 5dda 44e3 d4bf
00000120: c250 fd24 1023 0740 225e c853 72ea 1dc0
00000130: 32bd 667f fdfb 0b40 d106 f6dc 55cb 2c40
00000140: cda7 c80a 9a2a f5bf bc26 567c 9db8 1f40
00000150: f918 dab7 5413 2fc0 e798 2684 5105 1c40
00000160: c035 c550 b64d 2f40 3807 19cc 63aa e6bf
00000170: ba94 3beb 25b2 1240 401e 39bb 9a08 24c0
00000180: 4473 1eab c70a 1140 8672 6c1b 249f 2e40
00000190: 4c11 b3bc d1f7 dabf 41ea a40c a2f9 0640
000001a0: 95e0 7c5c daf6 14c0 dd57 47c3 8f44 01c0
000001b0: a3de 2bd5 49fb 3240 cc74 0409 e98d f7bf
000001c0: 2ac0 cca4 3b44 2240 bae3 6b83 4907 33c0
000001d0: 8dc5 37a6 8686 2640 08c6 b73b 7825 2c40
000001e0: f6b0 b189 a0f9 f1bf a161 c5f3 63d1 1a40
000001f0: ab22 0a0d 43e2 28c0 9927 f89b f454 0a40
00000200: 8c27 085e 03b7 3140 7e75 2bdc 5a45 f5bf
00000210: 5481 1e2f eb55 2040 aba4 7080 8d1c 30c0
00000220: 98fa 35d2 31e0 1a40 6143 ef34 9b40 3140
00000230: eebb 353c 9176 e3bf d068 abc5 26a2 1040
00000240: 7cbe 3ea8 9e40 21c0 fb5e 3748 3a08 fc3f
00000250: 25de a706 4dcb 3140 21b0 c74c 378b f2bf
00000260: e653 ab3f 7e27 1c40 995f bc95 9622 2ac0
00000270: ae3e 7ab6 daf1 0640 5623 742c 9f50 3340
00000280: ace9 8111 bf47 f7bf 958f ed16 c9c2 2140
00000290: 38db 5c36 8971 31c0 7fec 6780 6045 1e40
000002a0: 8aba 2e3b d877 3140 ac35 0d6c 59f6 e7bf
000002b0: 4499 7544 0521 1340 c072 133d 253d 22c0
000002c0: 6d5d c210 0b68 e93f abc3 6d0d 9c60 3340
000002d0: 7b4c fa4c cb37 fcbf 95b2 0067 1c4c 2340
000002e0: a0b1 7e0e 5b1c 30c0 28c2 9c19 f76e 0640
000002f0: 69e2 d41a e0c3 3440 e6d9 1dd8 1ef7 f8bf
00000300: 6e52 e48b 5089 2240 8424 a24b cf5d 31c0
00000310: b875 e2e4 d9c4 1740 6ae6 9029 474f 3340
00000320: 1466 8b98 7d4f fabf 5fc1 f03f 6460 2240
00000330: ba45 7ec1 ebb2 2fc0 5758 081f 60df 0b40
00000340: 4c07 58a9 2470 3440 32ac b8d6 9147 fdbf
00000350: 883c 126a ff23 2340 2e02 3265 f8f4 2cc0
00000360: 75fb f34e 8487 e0bf 255a fbb2 3bf4 3640
00000370: 1ce3 2020 be1a 01c0 0043 40f5 d73a 2740
00000380: 7964 123e 6d12 33c0 acdc caf6 5196 0840
00000390: 1036 c50a f7e9 3640 6ae0 259a f05b f6bf
000003a0: bc8d 2e4c 7440 2040 d35e 98d9 26e4 2cc0
000003b0: c665 daa5 9353 0540 b8b3 ad50 d740 3540
000003c0: 23a8 dd0a c23f fabf e330 c4d1 e2c1 2040
000003d0: ff67 1ae3 b86c 27c0 392e aa41 22af 0ac0
000003e0: e3d3 14cb d059 3840 afce 1c7e 9d72 f4bf
000003f0: 8769 e319 fba7 1a40 50b4 4de3 1f59 21c0
00000400: b5f1 c12d 5665 19c0 7135 26dc da1e 3a40
00000410: 826b dd85 97be 00c0 e918 3ebd 1404 2740
00000420: 5d48 c81d cb42 33c0 3379 00af 65f7 0d40
00000430: 93fd fd6b b6c1 3640 d0b2 d832 0b97 f7bf
00000440: a8d1 5a3d 6046 2040 c2aa d4cf 7e07 2ac0
00000450: 34c7 2a8d 1a51 e1bf 26e0 a3a6 9a94 3740
00000460: dce2 8b31 8b2f f9bf a573 bfb3 592b 1f40
00000470: aac2 1ed8 a824 23c0 4844 80b6 42d2 1ac0
00000480: 4a89 0fad ef9e 3a40 6804 0fd7 3487 fdbf
00000490: 1732 eb8d f9f6 2240 e81d 2f9c 7791 29c0
000004a0: 07dc b6cf 1fc7 15c0 95a3 437a 52ce 3b40
000004b0: 9fc1 8958 0dba f0bf 83a4 612e 2db8 1440
000004c0: 0b87 0b42 c450 14c0 6919 7291 a720 25c0
000004d0: 8691 a4f1 7bf8 3c40 5d8d 15a1 78c1 fcbf
000004e0: 5bb6 0d76 6b95 2340 275d 2d9c dbdc 2fc0
000004f0: ed4e 7e06 97ed f63f 399d 7b7b 0fab 3740
00000500: 356e 2295 7fd8 fbbf c5dc 2e79 212e 2140
00000510: 0d4d 427e c551 25c0 a95b 63e3 5751 1ac0
00000520: 63eb 0edf af67 3b40 2fd9 50d6 e557 f2bf
00000530: 6381 1015 5eba 1440 3197 ae24 5b49 09c0
00000540: f634 24ec 9df6 2cc0 f7ca 9aa5 bd19 3f40
00000550: 0c4f d409 ac7c fbbf f641 5af8 18ee 2140
00000560: dcc7 09b4 86ee 27c0 8098 1f18 9ac2 19c0
00000570: 2f94 9991 f51d 3d40
